model/best_cnn_model.pkl (torch, 205727 bytes, 14 tensors)

weight f4 [32, 10, 3, 3]
00000000: fc2a 173c 3513 3cbd 10c5 163d 245f 223d
00000010: 93ca 3bbd 6228 c6bb 6466 7abd 736f f63c
00000020: f092 e9bc c59b 6f3d ed18 bf3d f87e a93c
00000030: 35c3 ddbc 1e94 c5bd ead9 41bb 7ce9 c1bc
00000040: 4838 fb3c 478b cbbd fd44 ce3d 2927 94bd
00000050: 8fd5 b83d 946b c5bb 3a3a 1a3d 3571 5b3d
00000060: 10b3 353c 6434 ca3c 6867 823d 35eb f63c
00000070: 7c86 a73d fe9f abbd e171 d93d 60d8 eaba
00000080: a85d 0d3d 4a7a a03c 8ecc 3b3d e220 8f3d
00000090: 9a14 23bc a2cd 49bd 46e9 e9bc d5f1 3bbd
000000a0: 5ca6 263d 1f12 09bd b3a1 43bd 77db b13d
000000b0: 3129 bf3d f9bc c03c 740d 76ba 9700 28bc
000000c0: e57a 9e3d 704a 0dbe 7e0d 7cbd 6ab9 b33d
000000d0: c88b c13d 6345 1dbc 65d6 9ebd 8aba 973b
000000e0: 2c04 4bbd 358e db3c 71ee c33c 8a55 793d
000000f0: 2326 01bc f80f 843c 3ad5 f83c 4eb7 a8bd
00000100: a239 47bc 7b91 7dbb dc6e ecbc 60e9 bdbd
00000110: 83d3 243d 5904 883d a011 413c 570a 5bbd
00000120: d9f4 093d 0be9 8bbd 79e4 03bd 416d 003e
00000130: 63de 4ebd d04d e83c c1a9 7b3d dc76 42bd
00000140: c237 dd3d daaf acbd 7df1 47bc cf6c 86bc
00000150: ebe2 96bc e4de 67bd 1d7a a73d 4b31 8a3d
00000160: c107 e83c 55b3 e73d 3087 87bd ee82 3bbd
00000170: 93f7 5b3d 8e9e 8e3b 6575 c6bd 0618 8dbd
00000180: 6227 7dbd f855 a53d 36e9 4b3d c096 a83d
00000190: f6b8 8dbd 9283 b6bd e769 8ebd 57bc 6f3b
000001a0: 47e6 62bc 29e1 82bd 55ee a13d 3fee ddbc
000001b0: 20c0 64bd 72c6 773d ef01 a7bc 5844 963d
000001c0: be9b a63c 3088 033c 3f44 c83c 7dec 92bd
000001d0: 4d0a 62bd 7cd9 2bbd 2dcb 51bd 2a7c e43c
000001e0: 91c8 aa3c 74da 5bbd 7dd9 933d 8795 6bbd
000001f0: cf1a c43c a81c f2bc b137 b0bd b0c2 7cbd
00000200: cd2f 373d e9d7 3d3d 5d14 94bd a314 f8bc
00000210: 6681 ccbd c7db 643d 3e56 ba3d 87d2 283d
00000220: 9f87 75bd 0e96 803d 5842 ae3d fb43 f1bc
00000230: a548 56bc 923f 083d 40ba 923c 7cff efbc
00000240: 8657 c5bd ec22 8fbd f5ab 7c3c 44ef dcba
00000250: 955f 9a3d 2003 163c 4d3b febc 1e09 cabd
00000260: cce2 cbbd f288 3e3d 5120 c93d ab07 2b3c
00000270: 235a c1bd 5236 cc3c 5f4b b43d 5859 96bd
00000280: 4a3d cabc e82c 9b3b 8725 d7bd 5e0e 13be
00000290: 974e 8d3c 049b 01be 4b03 a9bd eab3 b2bd
000002a0: 48fe 213d 2674 18bc 7629 913c 13fb 97bd
000002b0: 8366 a83d cde0 a338 8579 75bd db69 bcbc
000002c0: abbb b7bd acef b1bc 0f02 543d a0d4 84bd
000002d0: 2c14 ae3d 3a0e ff3c d356 c2bb 2039 c13c
000002e0: 52a1 41bd 4b97 93bc bba7 80bd 1956 673d
000002f0: 9cae 803d a9d7 913d 6a0c b53d c620 0a3e
00000300: d707 fe3d 55e3 05be 9077 b63c 9e00 44bc
00000310: b294 e63c a145 0fbd a5aa 1b3d d309 a4bd
00000320: 1ec7 573d a13d d03d 935c 1bbd 79d2 c8bd
00000330: 715b dcbd 411d d8bc 81c9 84bc 6d6d 033d
00000340: b620 533d 9a2b ce3d 01b3 8f3a 20b3 1e3c
00000350: f6e6 7cbd 8cc6 a53d 58b7 643d 4de0 8ebc
00000360: 240f a43d 325c 673d e99c 3e3d 3ccd 9ebc
00000370: 08c0 853b e009 0a3c 5919 65bd 701d 603b
00000380: 9074 bc3c 1b7d 01bd cd0b 323d 0471 3e3c
00000390: a371 3cbd 75a5 b0bd 87c6 9dbd e3c8 ef3c
000003a0: 7923 523d 99ee 9b3d dd50 013e 956d 913d
000003b0: 9390 853d 4302 833b f154 863d 2b99 1ebd
000003c0: 9d9c 15bd cef7 b5bc b9f3 7fbd 5fe3 54bd
000003d0: 3427 6e3c 8018 dd3d b3a9 c1bc 9d47 f9bd
000003e0: d627 82bc 375d a73d adf2 1d3d c5e4 5dbc
000003f0: fd29 ad3c dc01 1d3e 1a85 85bd 6369 f33d
0.009226557 -0.045916755 0.036809027 0.039641514 -0.045847487 -0.0060472945 -0.061132804 0.03008244
-0.028512448 0.058498163 0.09330926 0.020690426 -0.027070621 -0.09647392 -0.002957935 -0.023670904
0.030666485 -0.099386744 0.10071752 -0.07234032 0.09025108 -0.006024787 0.037653185 0.05357476
0.011090055 0.024683185 0.063673794 0.030141452 0.08179948 -0.083801255 0.10617424 -0.0017917268
0.034513146 0.019589562 0.045849375 0.06988694 -0.009953642 -0.049268372 -0.028553616 -0.045884926
0.040685996 -0.033464547 -0.04776163 0.08684438 0.093340285 0.02352761 -0.000938616 -0.010254047
0.07738284 -0.13797927 -0.061536305 0.08775599 0.09450489 -0.009599063 -0.07755736 0.0046303915
-0.049564525 0.026801208 0.023917409 0.060872592 -0.007882628 0.016120896 0.030375112 -0.082380876
-0.012159737 -0.003869145 -0.028861456 -0.092730284 0.040240776 0.06641454 0.011783987 -0.053476658
0.03368077 -0.06831559 -0.03220031 0.12541677 -0.050505053 0.028357416 0.061441187 -0.047476634
0.108016506 -0.084319785 -0.012203571 -0.016409306 -0.01841875 -0.05660905 0.08177588 0.06747683
0.02832401 0.11313502 -0.06617582 -0.04577916 0.053702902 0.0043523973 -0.0969036 -0.06889348
-0.061805137 0.08073038 0.049782954 0.08231878 -0.06920044 -0.08911814 -0.06953793 0.0036580765
-0.013848848 -0.06390602 0.07906786 -0.027091144 -0.055847287 0.060491987 -0.020386664 0.07337254
0.020337936 0.008028075 0.024446605 -0.07174013 -0.055185605 -0.041955456 -0.051219154 0.027891237
0.02084759 -0.05367513 0.07219217 -0.057515647 0.023938565 -0.02955468 -0.08604372 -0.061709106
0.04472332 0.046348486 -0.072304465 -0.030283278 -0.09985618 0.05587366 0.09098481 0.0412164
-0.05994379 0.06278621 0.08508748 -0.02945136 -0.013078843 0.03326375 0.017911077 -0.02929663
-0.096358344 -0.06989083 0.015421857 -0.0016855975 0.07537762 0.0091560185 -0.031034136 -0.0986502
-0.099553674 0.04651732 0.09820617 0.01043884 -0.0944102 0.024928246 0.088034384 -0.0734126
-0.024687428 0.004735578 -0.10505205 -0.1436095 0.017249389 -0.1265679 -0.08252581 -0.08725722
0.039549142 -0.009305036 0.017719965 -0.074209355 0.082226776 7.814318e-05 -0.059930343 -0.022999695
-0.08971342 -0.02172073 0.051759776 -0.064858675 0.08499941 0.031134713 -0.0059307604 0.02358681
-0.047272988 -0.018016478 -0.06281992 0.056478593 0.06283304 0.07121212 0.088402584 0.13489065
0.12403839 -0.13075002 0.022273809 -0.011963038 0.028147075 -0.034978513 0.038004536 -0.08009686
0.052680127 0.10168005 -0.037930083 -0.098057695 -0.107596286 -0.026381137 -0.016209366 0.03208678
0.051544867 0.1006691 0.0010963382 0.009686261 -0.0617437 0.080945104 0.055838913 -0.01744094
0.080107 0.05648441 0.04653636 -0.019384973 0.00408173 0.008425206 -0.055932377 0.0034197234
0.0230048 -0.03161345 0.043468285 0.011623625 -0.04600681 -0.086253084 -0.07703882 0.029270595
0.05130336 0.07613868 0.12628503 0.07100979 0.06521716 0.0039980724 0.0655917 -0.03872029
-0.03652631 -0.022212889 -0.06248829 -0.05197465 0.014535714 0.10795689 -0.02364049 -0.12171862
-0.015888136 0.08172076 0.03856151 -0.013543312 0.021138186 0.1533274 -0.06519528 0.11885335

bias f4 [32]
00000000: 3fed 7cbd 5d3b a83d e58a 49bd 4ab5 8ebd
00000010: 4e5c 81bc d690 a9bd 642a 65bd 801a b9bc
00000020: 23f2 0cbd 6ec5 83bd d769 8fbd 9612 64bd
00000030: c4c2 be3c ff47 dfbc 4f88 87bd eb3f a23b
00000040: a5d9 95bd c09b 6d3d 973b b8bd 9ae1 9bbd
00000050: 5bd4 44bc eaae 5abd 7ecf 5c3d a28a 59bd
00000060: 0051 faba 916a a63d 78b5 783b 55c9 793d
00000070: a86f 93bd fc69 623d cc16 273d 010f 93bc
-0.061749693 0.08214448 -0.049204726 -0.06968172 -0.015791085 -0.082795784 -0.05594863 -0.022595644
-0.034410607 -0.06434141 -0.07002609 -0.055681787 0.02328623 -0.02725601 -0.06617796 0.0049514673
-0.07316903 0.058009863 -0.08995741 -0.076113895 -0.01201352 -0.053389467 0.053908817 -0.053110726
-0.0019097626 0.08125795 0.003794996 0.06098302 -0.07199031 0.055276856 0.040793225 -0.01795149

weight f4 [32, 32, 3, 3]
00000000: 6963 1fbd 4836 c03a 79f0 a6bc 60ad 403d
00000010: 2f45 1b3c 63b8 3bbd 557f d13c 78fd 94bc
00000020: c594 adbc c441 583d 3366 2fbd 7bdd 9ebd
00000030: 3dba 3dbd 8851 fdba 9559 373c 6684 6ebb
00000040: ba77 2eba c66b f0bc 491a a0bc 84ca 2d3d
00000050: d332 e43c 6a41 593b c9a1 19bd 6daf 0bbc
00000060: e144 7cbd c256 baba 2efa d23d cf00 9c39
00000070: 6aa1 4e3c d422 2ebd 3ae0 703d c8be 153c
00000080: d33a 993d 8e7e c83c 7736 8ebd 8639 15bb
00000090: 216c 9f3c b758 d4bb dd6d 173d d422 c4bd
000000a0: a294 953c 972d dbbc 319c 2fbc 5db5 c03c
000000b0: 52d0 5cbc 4747 5b3d 941e 8a3d ff2b 9fbc
000000c0: 3004 63bc 8952 173c 4f99 a23a 2c8c 4ebd
000000d0: 9ad6 353d f63b 2a3d c84c 0a3d 330b 593d
000000e0: a97a 1dbd 3445 853d cb77 08bd 2a8c fc3c
000000f0: 9ee6 88bd 7e7a 393d bd03 4b3d 4996 bbbd
00000100: d2d8 403d e952 a53c c01e 523d 7ac4 d33b
00000110: aea3 143c 3877 ebbc 1ee9 56bc cee0 55bd
00000120: 97f3 febd 07a9 9d3a 8394 643d 41ba 4abd
00000130: 2c75 573c 8e95 e13c ef2f dfbb 9d30 a2bd
00000140: 2617 21bd f683 e73b 5a60 4abd 285e a9bc
00000150: f88c 703c 08b9 42bd 60ca 8bbd 9329 783d
00000160: a13a d83c e1c6 c73c 6847 bebd 0ba2 813b
00000170: f505 d23c 0c01 1e3d 486d f6bc e4e0 ddbb
00000180: cdb7 02bc 3aa5 223d 1ece 41bc 2b03 a13c
00000190: 348b 1b3b 3058 583d 01fc 1f3d d21f d0bc
000001a0: bd40 41bd 7940 bebb e29a 0c3d 866a 2e3d
000001b0: 09f4 8a3c a0cc 8abd a017 593c 72b3 c2bd
000001c0: 8165 83bd 500f 35bd 2249 b8bc 6038 c5bd
000001d0: 6087 973b ce51 4c3b 1560 b33b ecf6 713b
000001e0: 20f6 0b3d 5ecf 4d3d 3926 04bd 0fab a53b
000001f0: 34fb ccbc d7cb f4bc fe26 75bd 96e0 4cbd
00000200: 0f06 f93c a6a8 333d da34 d2bc 2447 ec3c
00000210: c952 153d 7cbf fd3b f79f 393d 5adb 423c
00000220: 809d 3a3d 8a92 9e3b 4a15 d93d bf85 183c
00000230: fca7 773b e7a0 ccbd 7111 9b3d 4c40 8cbd
00000240: 721e 81bc 96bd 41bd e6bd 05bd 0921 08bc
00000250: 0128 903d f86b ff3c e3c5 bd3d 46cc afbc
00000260: c5ec 3d3d c799 0fbd c47a 843c c9c6 1cbd
00000270: 4124 da3c 9d72 d23b 7f49 28bc 05d7 dc3d
00000280: 812f 8d3d aa24 ec3c 7077 01bb cb93 863d
00000290: 7a3b 2b3d c5d2 063c dd9d 163c 901b 963b
000002a0: 31cc 93bc 73ad 51bd b7b6 be3c 6481 ecbc
000002b0: 3824 473d dd6c f1bc 1ae9 2cbd 006d 183d
000002c0: 5233 cc3c 697b 94bc 6465 b8bd ee8b 41bc
000002d0: dba8 473d 1c3c d83d f755 493e ef08 41bd
000002e0: 32e2 a7bb a216 903b 8fb7 ea3a 7a5c c53c
000002f0: 62b7 7bbd 215f a13c 0822 babb ed96 043c
00000300: 8e28 72bd 0ac7 92bd fe89 1cbd 0d90 95bc
00000310: 3cda 68bd 7f32 36bc 27a4 513d 8c38 29bd
00000320: d82a 093d 16b6 6abb af40 a03c 1482 93bd
00000330: 8a17 d93c 4973 46bd 1eb9 73bc d9c1 e7bd
00000340: e416 50bd d6dd dbbc 16bb 613d f4b2 0c3c
00000350: 92e1 c73d e39f b2bc 46b7 31bd 27ec 4d3c
00000360: 4fb6 dbbd c52f c73c 79f8 0f3d e15c 1bbc
00000370: 5555 3a3d 77b2 29bd 893d 0f3d 2ec9 ccbc
00000380: 1630 7fbd b340 933c a415 e43c ea8e 5f3b
00000390: b6dd eeba 5aa1 823c e0a1 a9bc 7747 c139
000003a0: 2362 073c a13e cebd 3813 743a d556 56bd
000003b0: 9e77 ae3d 9ad2 4ebd 18d3 7bbc f2f4 9bbd
000003c0: 7be5 d83c 8e68 e9bb cb12 393d c439 a23b
000003d0: 57d8 b43d a977 1f3d 081d 4f3c a214 19bd
000003e0: 0b74 c33c 19e1 89bd 16be 213d 772d d93c
000003f0: fb29 2f3c 131a 03bb e2c7 15bd 0755 e93c
-0.038913164 0.0014664615 -0.020378338 0.047040343 0.009476944 -0.04583014 0.025573412 -0.01818727
-0.021189103 0.052797094 -0.042822074 -0.07757088 -0.04632019 -0.0019326666 0.011190792 -0.0036394834
-0.0006655414 -0.029348265 -0.019543784 0.042429462 0.027856266 0.0033150562 -0.037507806 -0.0085257115
-0.061589126 -0.001421653 0.10301624 0.0002975524 0.012611726 -0.042513683 0.05880759 0.009139724
0.07481923 0.024474408 -0.06943982 -0.0022769882 0.01946074 -0.006480302 0.03697001 -0.095769554
0.01825935 -0.026755137 -0.010718391 0.02352398 -0.013477402 0.053534772 0.067441136 -0.019430159
-0.013855979 0.0092359865 0.0012405309 -0.050426647 0.044394113 0.04156109 0.03376463 0.052989196
-0.038447056 0.0650734 -0.03331737 0.030828554 -0.06684612 0.045282833 0.049564112 -0.09159524
0.047081776 0.020181136 0.051298857 0.006462631 0.009072227 -0.028743371 -0.013117103 -0.052216344
-0.12448805 0.0012028523 0.055805694 -0.04949403 0.013150495 0.027537134 -0.006811134 -0.079194285
-0.039328717 0.0070652915 -0.049408294 -0.02067478 0.014682047 -0.04753974 -0.06825709 0.060586523
0.026395144 0.024386825 -0.092909634 0.0039560846 0.025637606 0.038575217 -0.030081406 -0.006771194
-0.007978392 0.039708354 -0.011828927 0.01965483 0.0023734095 0.052818477 0.03905869 -0.025405798
-0.04718088 -0.0058060256 0.034327395 0.042582057 0.016962068 -0.0677731 0.013250262 -0.09506883
-0.06415845 -0.044204056 -0.02249581 -0.09629893 0.0046242923 0.003117669 0.0054741004 0.0036920859
0.03417027 0.05024659 -0.032263014 0.005055792 -0.025022127 -0.029882355 -0.05985164 -0.05001887
0.030398397 0.043862008 -0.025659967 0.028842516 0.036455903 0.007743774 0.04531857 0.011893118
0.04556036 0.004839246 0.10599764 0.009309231 0.0037789335 -0.09991627 0.07571686 -0.06848201
-0.015761588 -0.047299944 -0.032651804 -0.008308657 0.0703888 0.031179413 0.092662595 -0.02145971
0.04636838 -0.035058763 0.01617182 -0.038275514 0.026628615 0.0064223544 -0.010271429 0.10783199
0.06893826 0.028826077 -0.0019755028 0.06571158 0.04180477 0.008228962 0.009192911 0.0045809224
-0.018041702 -0.051190805 0.023280485 -0.028870292 0.048618525 -0.029470855 -0.04221449 0.037213326
0.024926815 -0.018125253 -0.09003714 -0.011813147 0.048745017 0.1055834 0.19661699 -0.04712766
-0.0051234 0.0043972293 0.0017907488 0.024091948 -0.061454184 0.019698681 -0.0056803264 0.008092624
-0.059120707 -0.0716687 -0.038217537 -0.018257165 -0.05684875 -0.011120438 0.05118194 -0.041313693
0.033488125 -0.0035814098 0.019562094 -0.07202545 0.026500482 -0.04844979 -0.014875678 -0.113162704
-0.05080308 -0.026839178 0.05511006 0.008587588 0.09759821 -0.021804756 -0.043387674 0.01256851
-0.10728132 0.02431477 0.03514907 -0.009482593 0.045491535 -0.041429963 0.034970794 -0.024998274
-0.062301718 0.017975187 0.02784235 0.0034112283 -0.0018224034 0.015946079 -0.02070707 0.00036865074
0.008263144 -0.10070539 0.0009310725 -0.052328903 0.08518909 -0.050493814 -0.015370153 -0.07615079
0.026476612 -0.0071230596 0.045183938 0.004950734 0.08830326 0.038932476 0.012641199 -0.037373193
0.023859045 -0.06732387 0.03948792 0.026510937 0.010691161 -0.0020004555 -0.036567576 0.028482927

bias f4 [32]
00000000: 730b 7f3c 72b5 bebc a63b c83b 71a5 053d
00000010: fc6a e73c b384 1cbd 1386 abbb faef 17bd
00000020: f50e 303a c4e8 9b3c de32 b23c d731 0fbd
00000030: 41ec 2cbc 6039 003c 3e9c f6bc b8aa 22bd
00000040: bf3a 583c 5538 76bd 2aa9 a3bb 6f4d 083c
00000050: c7df 1bbb abc9 3abd a4d2 ddbc 7511 163d
00000060: b5b4 023d e819 acbc ae38 82bb a83a d6bb
00000070: 987a 073d 1dd9 5ebd 823e 0f3d f8c8 da3c
0.015566695 -0.02327988 0.0061106263 0.03262848 0.028249256 -0.03821249 -0.0052344888 -0.037094094
0.0006716096 0.01903189 0.021752771 -0.03495964 -0.010554374 0.007826179 -0.030103799 -0.03971359
0.0131976 -0.060112316 -0.004994531 0.008319243 -0.0023784505 -0.04560248 -0.02707798 0.036637742
0.031910617 -0.021008447 -0.003974042 -0.006537754 0.0330759 -0.054406274 0.03497172 0.026707157

weight f4 [32, 32, 3, 3]
00000000: cf87 5d3d 553d 2d3b 5bd2 23bd 52ef b3bc
00000010: 00da 0b3d 3314 b93c 0d67 653d db03 5b3d
00000020: 1f4f fe3b cb33 46bd 5dcd 4fbd 354c b4bc
00000030: d100 b53c bde6 b43c 7e13 223b f66d 613d
00000040: 4be4 3d3d 49ac 1fbd d027 8f3c 3984 5bbc
00000050: 76f0 0f3d 66e3 413c a384 8cba cfc9 e8bc
00000060: 3b2f e23c c760 8e3b 04c2 5f3d 9a16 2bbd
00000070: 0ac3 4d3d 1db2 313c b3f2 013d 0417 64bd
00000080: 8b27 1f3c f317 b3bc 6a1d 683d 6128 3dbd
00000090: 44d4 9bbc 9d17 e73b 07a0 053c 2f27 0fbd
000000a0: 18d2 7cbd 3c7a 0b3d ef38 523d c83f 893d
000000b0: 1d80 a93c b4a2 473d ae58 7f3d e794 dbbb
000000c0: 4514 e33c afac 92bc f388 9d3c 9798 703c
000000d0: e749 543d 82bd 0f3b a2db 903b f434 6abd
000000e0: 2167 15bd fc7f e9bc 7769 6dbd f0ce c83c
000000f0: 2051 483c 88a0 2bbd 2bd3 223d b26c 593d
00000100: 4cac 10bd 7e3b 103d d3f1 33bd c1e2 48bb
00000110: a9fd a73b 4239 e13c 1fe3 23bd b3dd a7bc
00000120: ca64 113d 29ff 473d 3af6 a83c 5013 1ebd
00000130: 4348 1f3d d8e3 6bbd 3a8e e23c 9b1c 10bb
00000140: 7325 9d3c 08e6 0dbd 672c 67bd 126a 2f3d
00000150: af27 99bc 4143 f8bc ccea 02bd 11c4 07bd
00000160: 47d3 e6bc 292d 15bd f363 c9bc 3d83 5fbd
00000170: 2b21 133b fac2 52bc 8715 d1bc e507 1c3d
00000180: 2503 3bbd 123a 433c 6cc9 a8bd 25f7 47bd
00000190: 2acd 6e3c b399 8ebc a67e ef3c 85c7 59bd
000001a0: 28d1 b4bc 86d9 1cbd dbeb 1ebd 6111 20bd
000001b0: 1760 813c 3683 ed3c b689 f73c c73e 1dbc
000001c0: c45a 80bd 3137 a6bc 2888 79bd 9464 1d3d
000001d0: 1e40 f43b d934 76bc 3ba7 43bd 138e 73bb
000001e0: 9fc4 303d fc48 553d e2b1 183d 04c1 ff3c
000001f0: 506a 68bd 5cbd b4bc 86c0 16bd e9e8 16bd
00000200: 3f73 593d 680d 323d deeb e7bc 4104 0ebd
00000210: a95b 3dbc d279 1f3d a36f a73c 57a5 413d
00000220: 97c8 9d3d 34c3 5d3d 7219 d53b 2e02 083d
00000230: ad35 8b3d e939 11bd fdd8 153d 7537 fc3d
00000240: d8c5 07bd ef32 30bd d8f6 a7ba 3b6d 94bc
00000250: a195 7d3d 344b f2bc e6d5 16bd c275 38bb
00000260: ec12 3fbc faab a23c 3175 1bbd 1909 85bc
00000270: 55c8 10bd 9c3f 643c 6f16 01bd 880c 143d
00000280: 85aa 0ebd 30e3 3e3c 4f24 7f3c 9e23 303d
00000290: 59f3 7abd 611c 0f3d 0b9d 8d3c 0a7c 80bc
000002a0: b3a3 f4bc 60cc e8bc ac7b 8eba 0453 6e3d
000002b0: ae22 23bd ccb0 09bd dc3e 563b 0834 4d3d
000002c0: 46e1 603d 06e3 8abd 304d bf3c 09d7 80bd
000002d0: ba21 2b3d bf87 293d c179 4a3b 0789 493c
000002e0: 207c e7ba cc93 b03c 375b 0cbc 70c2 8bbc
000002f0: 47d3 e73c 45eb 713d da03 173d 8a28 5c3d
00000300: 412d 25bd 84d1 363d f047 513d f1f0 703d
00000310: b761 dc3c ba26 b43c 42d8 5c3d f316 f9bb
00000320: e1ef f1b9 a73f 4d3b e165 03bc 6b95 01bd
00000330: 4413 2d3c d532 c9bc 2dba 9b3c 2ad7 03bd
00000340: d544 3d3d 9eb3 05bb 5e66 0cbd 537b 433d
00000350: e67e a6bb 91cf 96bc fabc 83bb a7c7 4c3d
00000360: 4a92 bebc d0b1 c5bc cbdd 163d 336e da3c
00000370: d32a 66bd c9f3 cabc c23d 783d 321a 643d
00000380: 5087 07bd 6a8d 67bd 6c13 063d e3aa 533d
00000390: 732c 383c 2b8a 3f3d a56c 803c adf8 0a3d
000003a0: 3bc4 55bd 2137 20bc 1675 3b3d 797d 8abd
000003b0: 54d5 22bd f37e 013d 261b a23d 3c2f 0dbd
000003c0: e09f 323c 9b70 3f3d e787 583d 7002 c0bc
000003d0: 91b8 6cbb 9692 d0bc 2414 e7bc 13d2 d5bc
000003e0: 3022 3f3d 349e 283d ebb8 0bbd 702e 483d
000003f0: 5b45 d73c d50e 8a3d 17cd cd3c 03e5 6dbd
0.054084595 0.0026434262 -0.039995532 -0.021964703 0.034143448 0.02259264 0.05600648 0.053470474
0.007760897 -0.048389237 -0.05073296 -0.022008995 0.022095116 0.02208268 0.0024730857 0.055036508
0.046360295 -0.038982663 0.017475039 -0.013398224 0.03514143 0.011834001 -0.0010720681 -0.028416542
0.027610412 0.004345033 0.054628387 -0.0417696 0.050234832 0.010845688 0.031725597 -0.055686012
0.009714018 -0.021862006 0.056668676 -0.046181086 -0.019022115 0.0070523755 0.008155829 -0.034949478
-0.0617238 0.03405212 0.051323827 0.067016184 0.020690972 0.04873915 0.06234043 -0.0067011
0.027719626 -0.017904608 0.019230342 0.014684818 0.05182829 0.0021933024 0.0044207135 -0.057179406
-0.036475305 -0.02850341 -0.057961907 0.024512738 0.012226373 -0.04190114 0.039752167 0.053082176
-0.035320565 0.035212986 -0.043931793 -0.0030652734 0.005126674 0.027493123 -0.04001152 -0.020491457
0.03549651 0.048827324 0.020625222 -0.038592637 0.038887274 -0.057590336 0.02765571 -0.0021989706
0.019182896 -0.034643203 -0.05643883 0.042825766 -0.01869568 -0.030305507 -0.0319622 -0.033145968
-0.028176917 -0.03642002 -0.024583792 -0.054568518 0.002245019 -0.012863869 -0.02552296 0.038093466
-0.045657296 0.0119157005 -0.08241543 -0.04881968 0.014575282 -0.017407274 0.029235195 -0.053168792
-0.02207239 -0.038293384 -0.038799148 -0.039079074 0.01579289 0.02899323 0.030217033 -0.009597487
-0.06267312 -0.02028999 -0.060920864 0.038425997 0.0074539324 -0.015027248 -0.047766905 -0.003716354
0.043156262 0.052071556 0.037279017 0.031219967 -0.056742013 -0.02206295 -0.0368047 -0.036843214
0.053088423 0.043469816 -0.028310712 -0.034672026 -0.011557498 0.038934536 0.020438975 0.04727682
0.07704275 0.05414124 0.0065032775 0.033205204 0.06797347 -0.035455618 0.03658389 0.12315265
-0.033147663 -0.043017324 -0.0012814654 -0.018118491 0.061910275 -0.029576875 -0.036825083 -0.002814636
-0.011662226 0.019857395 -0.03795356 -0.01623969 -0.0353473 0.013931181 -0.031515535 0.036144763
-0.03483059 0.011650845 0.0155726215 0.043002717 -0.06126723 0.034939174 0.017286798 -0.015684146
-0.029863214 -0.028417766 -0.0010870597 0.05818464 -0.039827995 -0.033615872 0.0032691276 0.05009845
0.054902337 -0.067815825 0.023352236 -0.06291015 0.04178021 0.041389223 0.0030895325 0.012300736
-0.0017660893 0.02155485 -0.008566669 -0.017060488 0.028298987 0.05906226 0.036868908 0.0537496
-0.04032636 0.044633403 0.051093996 0.05882353 0.026902063 0.021991123 0.053917177 -0.0076016127
-0.00046145826 0.0031318457 -0.008019895 -0.031636637 0.010563675 -0.024560371 0.019009674 -0.03218762
0.04620822 -0.002040125 -0.034277312 0.047725033 -0.0050810454 -0.018409522 -0.0040203305 0.04999509
-0.023263115 -0.02413264 0.036832612 0.026663875 -0.056193184 -0.024774449 0.06060577 0.055689044
-0.03308803 -0.056531347 0.032733366 0.051676642 0.011241066 0.046762627 0.015676806 0.033928562
-0.052189093 -0.009778769 0.04576596 -0.06762213 -0.039754227 0.03161521 0.079153344 -0.034468874
0.010902375 0.04673825 0.05286398 -0.023438662 -0.0036120752 -0.025460523 -0.028207846 -0.026101148
0.046663463 0.0411665 -0.0341119 0.04887241 0.026278188 0.0674111 0.025122209 -0.05807973

bias f4 [32]
00000000: 7848 013d 63fc 683c 9327 d23b 6a21 e83c
00000010: a6a3 4abc 35a6 3bbd fb14 873c 5d47 9a3c
00000020: 4d53 18bd 71e9 eebc a2d0 52bd 9e00 8ebc
00000030: 3fd2 5d3c 14ac 17ba 967f bfbc 8a1e 24bd
00000040: f0f7 f83a ce8f e0bc f186 50bc 77f1 2dbd
00000050: 3235 fc3c a187 283d 4f3a 3dbd fbb9 62bc
00000060: 6372 adbc 89c2 363d 9460 963c b3aa c4ba
00000070: 3874 8b3b 13bf 183c c56b 20bd 616c e53c
0.031563252 0.01422033 0.006413409 0.028336246 -0.012368118 -0.045812804 0.016489496 0.018832857
-0.037188817 -0.029164048 -0.0514685 -0.017334279 0.013538896 -0.00057858345 -0.023376267 -0.040068187
0.001899479 -0.027412321 -0.012727485 -0.042466607 0.030787084 0.04114497 -0.046198186 -0.0138382865
-0.021172708 0.044619117 0.018356599 -0.0015004486 0.0042557977 0.009322899 -0.039165277 0.02800578

weight f4 [32, 32, 3, 3]
00000000: 60d7 2bbd 117c 74bd a8ea 57bd 64bf f5bc
00000010: 1ec0 09bb 70fc 5e3d 1d4f b83c aac1 743d
00000020: cc81 d93c 0ea0 8a3d 7968 a43c 9d3d 8f3c
00000030: 52b7 eabc 8633 803d 43a6 11bd 7f00 3ebc
00000040: 8216 163d d608 bd3c 79e0 433d fdc3 b43c
00000050: 16db a6bb 4934 4ebd 3003 ddbc 02a6 a0ba
00000060: a5d9 e3bc 8547 0c3d a055 73bd 83f3 9abc
00000070: c5cf 7dbd 299a b939 b14a 753d 11bd 29bc
00000080: 83c4 dbbc 8627 ac3d cf11 11bd 0102 41bb
00000090: fcaf 163d de8a 33bd f5b4 d0bc 8b81 97bb
000000a0: c784 9fbc e6b7 a13c 68b6 803c cdb5 c8bc
000000b0: f5f5 2bbb dc70 8a3a 62a5 313b 2010 2e3d
000000c0: a24a e3ba aae4 9fbc 92cf 453c 3410 7dbc
000000d0: b943 15bd d897 6cbd 829e 923d 4c90 6a3c
000000e0: 66f0 22bd 38b3 4b3d 6bbf eebc d686 8e3c
000000f0: 1353 3ebd 97f9 54bd 4d7c f6bc ec64 833b
00000100: be4b 5fbd a86d f1bc 1570 003d 025c 21bd
00000110: d5a5 3bbd 625e 603c 9c3e 29bc ff38 043d
00000120: 3a36 93bc a5af a83c fa6c 5a3d c57b 733d
00000130: d4d9 d3bc d3c5 4b3d 6ed6 04bd 85e6 093c
00000140: e748 963d 8340 4dbb 6ebc 903d a87a 553d
00000150: 73da 41bd 2997 80bd f47e 0dbd 7670 4ebc
00000160: 106d 9b3b 086c bcbc c07e 5abc b366 30bd
00000170: ac65 a13c 3362 62bd 16e4 253b 67d5 753d
00000180: 69ce 19bd ca7c 96ba 8ced 2ebd 8b29 7e3c
00000190: 49e0 b8bb e70b 6fbc a12d 0abb 788c 34bc
000001a0: cbbd e33b 2c42 1c3d bb56 0d3d da9b fdbc
000001b0: 2b24 31bc da7c 413c f6cb fdba 9359 bc3c
000001c0: aa4e 33bc 1fba fc3c 2d0b 10bc f938 bd3b
000001d0: 77ba 8a3b d05f a2bd 391f 0fbd 8f3d 7fbd
000001e0: 6d14 43bd cebb d83c 3a29 033d 5de8 103c
000001f0: ca3e d13c aaa5 853b a005 c9bd 33a3 50bd
00000200: 62db 51bd 188e 67bd 391a f23b a891 213d
00000210: d8da f23c f068 bfbc 4cc1 0fbd d5eb 84bc
00000220: 0355 16bc b82a 4f3c 7d13 8939 038e 86bc
00000230: 7973 7ebd cd2b 593c 291f 6bbd 4f6d d1bc
00000240: db61 4d3d c1cc 55bd a79a 373d acc8 7d3b
00000250: b4c2 5abd a2f7 ceb9 f009 febc 4c81 aa3b
00000260: e0b1 2c3a 099e 26bd 75f0 523d 8cb5 1fbd
00000270: 5c92 a13b 35da 633d 89e9 fd39 54dc 58bc
00000280: 2966 973c 9039 d63c 51ce 313d decf a7bc
00000290: 754c 443b c6a2 14bd bdde e13c f967 1cbd
000002a0: f025 473d d654 613d ed98 7f3d 8384 d5bc
000002b0: abea 9abb 0409 dd3c 8042 5c3d 501a 4dbd
000002c0: f6aa 093c 4982 04bd 649d 0b3d d3b0 89bd
000002d0: 5af8 04bd 4b25 6c3c ebe0 d2bc 80c8 b83c
000002e0: 5f75 183d 0de6 3cbd 64bb 1b3d 61af fb3b
000002f0: ee24 3cbc 8ca2 33bc ac07 b63c 0243 c33c
00000300: 7c7c 473c 48ab 8fbc c6ec 16bb 6aea 7fbc
00000310: 3a2a 073d 1327 64bd c605 a13c 67fd 03bc
00000320: 2ff2 c73c 96cd 1ebd 272e 863d 908c 3a3b
00000330: 2b02 12bc accb b9bc ecd5 e2bc 5f8d 763d
00000340: 43d9 f03b d0e8 be3b ddb6 87bc c332 713d
00000350: b081 4f3c aa7f d3bc a7a6 5dbb c584 5e3d
00000360: c5a8 aebb 835a 27bd e54c 89bd b32d 23bc
00000370: 6178 3fbd 5518 803c e6b5 673d 17e7 7ebd
00000380: e548 1cbd 9d71 a23b 8710 d33c 74e8 333d
00000390: 7e4f 953c a98d 1cbd d4fe 47bc c22a 22bd
000003a0: 0828 42bc d00d fe3a f5f9 473d b7a8 263d
000003b0: 76d4 94bc 5beb f73c fee8 81bd 0178 09bc
000003c0: ec79 db3c 7164 3e3b 37fc a03c 9cb0 8e3b
000003d0: 8a2b c8bc 075d 523c e29a 40bd db35 553d
000003e0: 1315 efbc b0e9 23bd 2e00 8e3c 64e1 573d
000003f0: 6108 42bd e43e 633d fa31 98bc 41da 7a3c
-0.041953444 -0.05968863 -0.05271402 -0.029998489 -0.0021019052 0.054439962 0.022498662 0.059755005
0.02655115 0.06768809 0.020069348 0.017485434 -0.028651867 0.06259827 -0.03555895 -0.011596798
0.03664256 0.023075502 0.047821496 0.02206611 -0.005092035 -0.05034283 -0.026979059 -0.0012256505
-0.027813742 0.034247894 -0.05940783 -0.018914944 -0.061965723 0.00035400808 0.059885684 -0.010360018
-0.026827103 0.08405976 -0.035417374 -0.0029450657 0.036788926 -0.043833606 -0.025476912 -0.004623597
-0.019472493 0.01974101 0.015711978 -0.024500752 -0.002623913 0.0010562199 0.0027106632 0.042495847
-0.0017340968 -0.019518215 0.012073414 -0.015445758 -0.03644154 -0.057761997 0.07159139 0.01431663
-0.039780043 0.049731463 -0.02914401 0.01739828 -0.046465944 -0.05199584 -0.030088568 0.0040098336
-0.054515593 -0.029471233 0.03135689 -0.039394386 -0.045812447 0.013694378 -0.010329869 0.03228092
-0.017970193 0.020591566 0.053326584 0.059444208 -0.025860704 0.049749207 -0.03243106 0.008416777
0.07338124 -0.003131897 0.0706719 0.052118927 -0.04732747 -0.062788315 -0.0345449 -0.012600055
0.004743226 -0.023000732 -0.013335884 -0.04306669 0.019701801 -0.05526943 0.0025312952 0.06001797
-0.037550364 -0.0011481282 -0.04270701 0.015512834 -0.0056419712 -0.01459024 -0.0021084326 -0.0110198185
0.0069501153 0.038149044 0.03450654 -0.030958105 -0.010811846 0.011809552 -0.0019363153 0.022991931
-0.010944048 0.030850468 -0.008791727 0.005774614 0.004233654 -0.07928431 -0.034941886 -0.062314566
-0.0476269 0.02645674 0.03202174 0.008844462 0.025542635 0.0040785866 -0.09815526 -0.05093689
-0.05123461 -0.056531996 0.00738838 0.03944555 0.029645368 -0.023365468 -0.03509645 -0.016225735
-0.009175542 0.012644462 0.00026145196 -0.016425138 -0.062121842 0.013255072 -0.057402764 -0.025564818
0.05014215 -0.05219722 0.044825222 0.0038724346 -0.05340834 -0.00039475883 -0.031010598 0.0052034017
0.0006587785 -0.040678058 0.05149885 -0.038991496 0.0049307775 0.05562802 0.00048429918 -0.013236124
0.018481331 0.026150495 0.04340965 -0.020484861 0.0029952799 -0.036288045 0.02757203 -0.038185094
0.048620164 0.055012546 0.0624017 -0.026064163 -0.0047276816 0.026981838 0.053774357 -0.05007392
0.008402577 -0.032350812 0.034085646 -0.0672318 -0.03246341 0.014413188 -0.025742015 0.022556543
0.03722131 -0.04611783 0.038020507 0.007680819 -0.011483414 -0.010964047 0.022220455 0.023835663
0.0121756755 -0.017537728 -0.0023029312 -0.0156198535 0.032999255 -0.055701327 0.019656073 -0.008056021
0.024407474 -0.03877028 0.065517716 0.002846513 -0.00891165 -0.022680126 -0.027689897 0.060193416
0.0073501184 0.0058260933 -0.016566688 0.0588863 0.012665197 -0.02581771 -0.0033821256 0.054325838
-0.0053301775 -0.040857803 -0.067041196 -0.009959626 -0.04674566 0.015636602 0.056569956 -0.062232103
-0.038155455 0.0049573914 0.025764717 0.043922856 0.018226381 -0.038221035 -0.012206752 -0.03959156
-0.0118503645 0.0019382779 0.048822362 0.040688243 -0.018167716 0.030263593 -0.06343268 -0.008390428
0.026791535 0.0029051567 0.019651515 0.0043545496 -0.024434824 0.012839562 -0.047022708 0.052053314
-0.029184854 -0.040017784 0.01733407 0.052705184 -0.047371272 0.0554799 -0.018578518 0.015310825

bias f4 [32]
00000000: 1206 1239 1dd3 8eba c877 ca3b 74e4 b03c
00000010: be93 18bc ab1c 43bd 5a48 d4bc 9842 5abd
00000020: 0058 32bd 50b7 703b 249a b0bc 5d15 d2bc
00000030: 048c f3bc 5086 933c a492 893b 4666 583c
00000040: 3323 c7bc cfb6 3bbd b521 22bd b63b 6f3c
00000050: f8b5 8fbb d1e8 c83b 84e2 70bd a39f 1abd
00000060: 16ed e5ba 6c5d d93c efeb e9bc f7c6 3ebd
00000070: f3d4 723c 1251 083d d73c 593d f604 0c3d
0.00013925906 -0.0010896657 0.00617883 0.02159331 -0.009312568 -0.04763476 -0.025913406 -0.053286165
-0.043540955 0.0036730357 -0.021557875 -0.025644952 -0.02972985 0.018008381 0.004198389 0.013207978
-0.024308776 -0.045828637 -0.039582927 0.014601639 -0.004385706 0.0061312695 -0.058809772 -0.037749898
-0.0017541971 0.026533805 -0.028554885 -0.046576466 0.014821279 0.03328044 0.053036537 0.03418442

weight f4 [32, 32, 3, 3]
00000000: a5b4 4bbc c40f 7dbd 0e33 3cbd 34af 34bd
00000010: 155e 23bd 8894 a53c 3fbf 2cbd 4f97 92bb
00000020: 2155 53bb d58e 073c 9471 813d 23df dfbc
00000030: cf4e 8cbd 687e 3e3d b996 003d a6c1 e5bc
00000040: f6ce 1dbd 111a 873d e856 12bd 34de eab9
00000050: 59fb 7c3d bde1 803d 1a62 ef3c ab4a 0bbd
00000060: bdcf 71ba 8b40 e33c d8d7 21bd 37e0 8cbd
00000070: 9df9 af3d 1d46 b83c 21a1 20bd 2d0f 063d
00000080: f389 4c3d 925d 53bc 363c 40bd c9a8 d4bc
00000090: e25c 28bd 3c98 3bbd 32fa 95bc 2441 5abd
000000a0: 6abc 2d3d 0076 ebbc 02ce 21bd 6645 9a3c
000000b0: 2409 2fbc 564e 75bd 7491 0fbd 876b 163d
000000c0: 5c48 153d ef31 b23c 0c62 4ebd eb24 ecbc
000000d0: c34f 84bc 14b4 333d cc1c 383c 323b 9fbb
000000e0: a88d 64bc 63c8 74bd bb11 053d 42b0 6a3d
000000f0: 9d83 1fbb edf1 16bd b154 adbc 8851 f43c
00000100: 0044 e0bc 044b 293d d75b d73b e8fe 1ebd
00000110: 3953 94bc fbfd bdbc 5c64 313c abfb 40bd
00000120: 9202 1c3d 9f19 443c 300b 26bd 6a53 c43b
00000130: 3c6f bebb 9a9f 33bd 6f33 00bd 5389 d4bc
00000140: 61c4 dc3c a140 54bd da88 283d ee80 0fbd
00000150: 07bf 9c3c 91b9 313d 9ec0 7abd 3660 93ba
00000160: cb98 11bd 53b6 22bd 3796 c1bc 47c2 8c3b
00000170: fd63 343d 5822 003c 338a 8b3d eaa8 a8bc
00000180: 8684 493d 6ef4 feba 317e 0abc 34d0 403d
00000190: bf12 f83c 47a8 583c 1b22 413b 2b9d 0bbc
000001a0: 4758 e3bc c39c 413d d4bd ab3c ec99 f73c
000001b0: cf91 44bd 3fe5 8cbb 4e73 98bb eae0 8f3c
000001c0: f0fa ff3c 05b4 783c 0e75 873c 3189 1d3d
000001d0: 2b82 23bd a433 683d 3bf0 653d e355 1ebd
000001e0: 4be9 01bd 20e3 18bd d85e b7bb 14d2 ba3b
000001f0: 3668 46bd 1707 ccbc f33b eebc 56fc 203d
00000200: 3dda 893c 9115 4cbd 9e2a 073d d4b7 7c3d
00000210: 3e67 033d 0efe cdbc b0f2 8a3d ee00 443d
00000220: 803b 16bd dd62 ac3c db75 2f3c ade7 943b
00000230: fea2 833d 275a 643d b91b 82bd d53b cf3c
00000240: 8ff6 42bd f071 83bd 4688 103d 1c16 e13c
00000250: 237c 09bd 13f8 993c ac57 34bd e1a1 6b3c
00000260: cfea 88bc 9609 edbc f206 ea3b d4cc f9bc
00000270: 8a20 513d 99b9 993b 9124 b4bb fca9 2bbd
00000280: 44d6 e3bc 70c6 d33b 1f2b fb3c 149e d13c
00000290: 5549 153d 627d aebc dbd8 5ebd e606 0b3d
000002a0: 05c6 70bd 1a9b d83c eadb a9ba 427e 2f3c
000002b0: dfb4 1dbd 94c0 60bc 6a19 5f3d 15aa 483d
000002c0: a75c 503d e551 89bb c528 e43c d028 72bd
000002d0: f6ac 2ebc 2407 9bbd d5b2 013d ef51 793d
000002e0: eef8 e03c a18e c4bc 4c9c 59bd fd2d b13a
000002f0: 7948 8a3d 9256 ffbc d05d b4bc c912 34bd
00000300: e7e1 0cbd 81a4 d0bb 9d23 b7bc e637 f7bc
00000310: 9407 1bbd 24f9 4cbc 3e83 11bd 9c88 4f3d
00000320: b5f3 09bd fca8 9cbc a017 fe3b e311 5bbd
00000330: 8ca4 c13c 0b53 19bd d93c 8d3b de58 bdbc
00000340: 6311 8b3c 0163 f8bc 1fb9 863c d575 163d
00000350: 57a1 d73c 8252 a3bc 1f1e 2f3d 3272 52bc
00000360: 0d82 4f3d 2e97 af3c 0a7a 2b3d 658b 743d
00000370: 9f4a 3c3d 823d 81bd b828 05bd a558 dfbc
00000380: 9249 75bd 278e 85bd 2431 e9bc e555 3a3c
00000390: 1135 4e3c 5ce0 ed3c 2b40 053d dccc 91bb
000003a0: f529 6bbd 620e bd3c c99c df3c 97f1 9c3c
000003b0: e91f 1fbd a567 a73c 820a 71bb 8fba a3bc
000003c0: a880 51bd 566e 08bb c773 d53c 5fc3 0bbd
000003d0: c50e 863d 0a96 52bc c796 4d3c 7cb1 4e3d
000003e0: ff74 733d 1a51 12bc 19be d5bb 2152 55bb
000003f0: c0e2 8fbc 87a0 573c 4760 fe3b 689c a6bc
-0.012433206 -0.061782613 -0.045947127 -0.0441124 -0.039884645 0.020212427 -0.042174574 -0.004473604
-0.0032246786 0.0082738 0.063204914 -0.02732808 -0.06850969 0.04650727 0.03139374 -0.02804644
-0.03852745 0.06596769 -0.03572741 -0.00044797512 0.06176314 0.06293056 0.029221583 -0.034006756
-0.0009224376 0.027740737 -0.039512485 -0.06878703 0.08592532 0.02249437 -0.039216164 0.032729317
0.049936246 -0.012900727 -0.04693242 -0.02595939 -0.041104205 -0.04579948 -0.018307779 -0.05328478
0.042416014 -0.02874279 -0.039503105 0.01883192 -0.010683332 -0.05988916 -0.035050824 0.03672364
0.03644596 0.021752326 -0.050386474 -0.028826198 -0.016151315 0.043872908 0.011237334 -0.0048593516
-0.013949789 -0.059761416 0.032487612 0.057297 -0.0024339922 -0.036851812 -0.021158548 0.029824033
-0.027376175 0.041331306 0.0065722275 -0.038817316 -0.01810609 -0.023192396 0.01082715 -0.04711501
0.03808839 0.011968999 -0.040538013 0.005991389 -0.0058116 -0.04385338 -0.03129905 -0.025944388
0.02694911 -0.051819447 0.041146137 -0.035035066 0.019134058 0.04338986 -0.06121885 -0.0011243883
-0.035546105 -0.03972466 -0.023631198 0.0042956206 0.04404067 0.007820688 0.06813469 -0.020588357
0.04919865 -0.0019451508 -0.008452938 0.047073558 0.030282376 0.013223714 0.0029469791 -0.0085213585
-0.027752055 0.04726864 0.02096454 0.030224763 -0.047990616 -0.004299789 -0.0046524173 0.017563302
0.031247586 0.015179639 0.016535308 0.038460914 -0.03991906 0.056689873 0.056137305 -0.038656127
-0.031716626 -0.03732598 -0.005596023 0.005701313 -0.048439227 -0.024905724 -0.02908132 0.039303146
0.016827697 -0.049825255 0.032999627 0.06169875 0.03208088 -0.025145557 0.0678457 0.04785245
-0.036677837 0.021043235 0.010709251 0.0045442195 0.06427573 0.05575004 -0.06352944 0.025297085
-0.047598418 -0.06418216 0.03528621 0.027476363 -0.03356565 0.018795049 -0.044028923 0.014381857
-0.016713528 -0.028935235 0.007141941 -0.030493177 0.051056422 0.0046913144 -0.005497523 -0.041910157
-0.02781213 0.0064628646 0.03066021 0.025588073 0.036446888 -0.021300022 -0.05440603 0.033942126
-0.058782596 0.026441146 -0.0012959216 0.010711255 -0.03850257 -0.013717789 0.054467596 0.048990328
0.05086961 -0.004190671 0.027851472 -0.059120953 -0.010661354 -0.07569721 0.03166469 0.060869154
0.027462449 -0.023993792 -0.053127572 0.0013517734 0.06752104 -0.03116921 -0.02201739 -0.043963227
-0.034395125 -0.0063672666 -0.022355849 -0.030178022 -0.037849024 -0.012510572 -0.035525553 0.05066739
-0.033679683 -0.019123547 0.007754281 -0.053483855 0.023638032 -0.03743271 0.004310232 -0.023113664
0.016976064 -0.030320646 0.016445694 0.036733467 0.02632205 -0.019936804 0.042753335 -0.012844609
0.050661135 0.021434393 0.041864432 0.05970325 0.0459696 -0.0631056 -0.032509536 -0.027263949
-0.059884615 -0.06521254 -0.028465815 0.011373018 0.012585894 0.029037647 0.0325319 -0.00444947
-0.05741306 0.023078147 0.02729644 0.019158168 -0.03884879 0.020435164 -0.0036779945 -0.019986419
-0.051148087 -0.0020817718 0.026056184 -0.034121867 0.06545786 -0.012853155 0.012548155 0.05046223
0.059437748 -0.008930469 -0.0065229055 -0.0032550173 -0.017564178 0.013160831 0.007762942 -0.020338252

bias f4 [32]
00000000: a4b9 333c 0db3 16bd f2f2 853c 2486 d33c
00000010: f44c 86ba 031e fb3c 0447 3e3d f7ec d2bc
00000020: 370c 323d 3602 c13c 4275 febc 7ddd 253c
00000030: 94fc 4cbd 0568 2e3d f629 37bc e205 5f3d
00000040: 2738 e7ba 0bd4 1abd 6293 083d af35 173c
00000050: 805b 4a3d 4222 3f3d b6f4 22bd 3b8e e83a
00000060: c73d 053d d144 1e3d 438b 2d3d 90c8 6dbc
00000070: 1272 c23a 470b 26bc bca3 4fbd b072 43bd
0.010969553 -0.03679185 0.016351197 0.0258208 -0.0010246322 0.03065396 0.046454445 -0.02574776
0.04346868 0.023560625 -0.031061772 0.010123608 -0.050045565 0.04257967 -0.011179438 0.05444897
-0.0017640636 -0.037799876 0.03334368 0.009229108 0.049403667 0.04666353 -0.039784156 0.0017742583
0.03252962 0.038639847 0.04236914 -0.01451315 0.0014835021 -0.010134525 -0.05069326 -0.047716796

weight f4 [32, 32, 3, 3]
00000000: af93 85bb 5184 8e3d 9fe7 b4bc d893 d33c
00000010: cde5 5fbc 18f1 e33c da9f 73bd 3bbe 0c3c
00000020: a68d 233d c82a 633d f0e0 10bd 8d40 82bb
00000030: 9fe3 ee3a 8a38 c73c 2449 493d 703d 11bd
00000040: 41bd 2fb9 0088 0bbd e432 51bd bd0e 4abd
00000050: 98ff 12bd fa19 57bc 3c18 0b3c b54e 763c
00000060: 64af 50bd f3c9 dfbc 4129 1fbd 5d8d 323c
00000070: db2a a3bc a7c9 153a 7ad9 32bd c071 00bd
00000080: b0b1 2e3d a8ad 693d b0cb af3a fa30 113c
00000090: 28a1 513c 6929 d63c 5d46 2f3c 5883 46bd
000000a0: 537b 4c3d eebf 223c 37cf 4c3d 83d8 1cbd
000000b0: a886 b2bc 7286 933c b281 513a b254 6abd
000000c0: 2460 633d 45ce 5bbc 96a3 21bc cc42 843d
000000d0: a4d3 31bd 8980 99bb aebe e93c 166b 993c
000000e0: 6289 6abd f4c8 bebc 987d 9f3b da51 6b3c
000000f0: 3cbd 7ebd f4e8 febc 06a4 a7bc 9333 e5bc
00000100: df25 113c 5804 4d3d 53d5 74bb 9f65 0dbd
00000110: 3cf5 38bd 9663 713d f4c8 273d e592 73bc
00000120: 234a 1dbd a196 e4bc 539a 0a3d 219e 0c3d
00000130: b9f7 803c cfe9 c0bc 5c60 b2bc c074 5cbc
00000140: 4e06 583d f1d9 6fbd 3d1c f43c cc72 e9bc
00000150: 1755 fcbc 5050 f13a 5e5a 1d3d 5ce3 c5bc
00000160: f471 4bbd d9e0 08bd dcdd 243c 7e81 f7bc
00000170: 787d 343c bebf ad3c 1013 e3bc 8c0d 37bc
00000180: e1fd f93c 9f37 883d c05b 6e3d b103 d13c
00000190: 70a3 9c3d e4dd 30bd 8f8b 473d 04bd d33b
000001a0: 3f05 48bd 6cba 23bd 965f 3e3c b043 e1bc
000001b0: 3916 703d e143 debb 643b 223d 0a88 83ba
000001c0: 4c4a 1a3d baf7 dabc 6df1 60bc 2a89 2cbd
000001d0: 8c2a 883c dc7a 483c 340d 843d 750c 27bc
000001e0: 5fc5 e7bb 6565 6d3d 1970 1d3c d9d3 0bbd
000001f0: a187 5b3d d7e2 243d 907d 1c3d 49ad 283b
00000200: 72d7 21bd 9a99 d6bc 9b66 c53c 3191 463d
00000210: 8eca 513b 1533 84bd 131c 9dbc cd54 94b9
00000220: 9b1a 103d a56e 24bd 7779 34bc 7ae2 443d
00000230: db02 7c3d 1df7 e8bc 5db8 263d bdc9 2b3d
00000240: 5d72 83bd de9f 1f3d 9d1b b5bc 4dc4 593d
00000250: bce9 073d 5123 7f3c dbcf f93c 1568 2aba
00000260: a7ef a2bb 3f77 1fbd 441c 56bb 0f0f 913d
00000270: 013d b33b 446c 70bd 2b5a f8bc 6329 59bb
00000280: 4fc7 533d fd06 6ebc 2357 36bd da4a f23c
00000290: 7dde a03c 9204 bc3c 021a 833c f45e 24bd
000002a0: eb59 52bd 670a 1e3d 5317 713c cc23 07bd
000002b0: b4b8 473d 27e7 7a3c a5d0 6e3c 80c3 13bd
000002c0: 9abc 6e3d ba70 793c e1c2 94bd 5b04 843a
000002d0: aa8a a13b 5a06 b0bc ba41 3dbd da65 d63c
000002e0: 5c9d 9e3c 438f a5bd bf73 48bd f0e0 1a3d
000002f0: 51cd 25bd 58d9 543d 39d5 06bd 37b2 49bb
00000300: 9f45 8c3d cb9c be3c 6b97 593c c649 7fbc
00000310: 43b4 433d e1de 84bd 6612 55bd 3e62 d1bc
00000320: ac3a 32bd 2ad3 f4bc 13b9 623d 8ef0 57bd
00000330: da4a 43bd 31db 7bbd 9c8f 88bd 23dd f13b
00000340: d2c8 173d 9b98 923c 0683 59bd 222b 313d
00000350: 85b2 973c c5b8 95bd d727 fc3c b0f1 953c
00000360: 4d07 93bd 5b6e 37bd dab1 15bd 593f 93bc
00000370: 5a6c 5e3d 5264 08bc f1c8 cb3c 5517 cc3c
00000380: d329 a6bd d6ed f3bc fd6c fbbc 5c3a 263d
00000390: 8b03 8f3c dd42 4ebc b143 83bd 85c9 ad3c
000003a0: e8f2 19bb bbf1 e6bb ed1d 7fbd 4e27 9ebc
000003b0: 03bd 47bd dc98 e8bb 8496 653d 385d 6bbd
000003c0: 5bd9 023c 9d58 f43c 6695 373c c96a 223d
000003d0: 64ed 87bd eab4 c03c 9842 343d 1533 5d3d
000003e0: 1b1a 0fbd de4b 3b3d acb8 413d 58be 653d
000003f0: bc4b 793d 2930 853d e077 81bc 183b 863d
-0.004076443 0.06958831 -0.022083102 0.025827333 -0.013665629 0.027824923 -0.05947862 0.008590276
0.03993001 0.05546072 -0.035370767 -0.00397498 0.0018225795 0.024318952 0.049142018 -0.035458982
-0.00016759803 -0.034065247 -0.051073924 -0.04933046 -0.035888284 -0.013128752 0.008489665 0.015033414
-0.050948516 -0.027317977 -0.038857702 0.010897961 -0.019917896 0.00057139475 -0.043664433 -0.03135848
0.042649925 0.057050377 0.0013412144 0.008861775 0.01279477 0.026142793 0.010697928 -0.048465103
0.0499223 0.009933455 0.050002303 -0.03829242 -0.021792725 0.018008444 0.00079920434 -0.057209678
0.05551161 -0.013415878 -0.009865662 0.06458053 -0.043414727 -0.004684512 0.028533306 0.01872782
-0.057259925 -0.023289181 0.004867267 0.014362777 -0.062192187 -0.03111694 -0.020463955 -0.027978694
0.008859127 0.05005297 -0.0037358596 -0.03452074 -0.04515575 0.058932863 0.04096313 -0.014866565
-0.03840078 -0.027903857 0.03383858 0.03433049 0.015743123 -0.023548989 -0.021774463 -0.01345557
0.052740388 -0.058557454 0.029798621 -0.028497122 -0.030802293 0.0018410776 0.03841626 -0.024156265
-0.04966922 -0.033417556 0.010062661 -0.030213114 0.011016242 0.021209594 -0.02771905 -0.011172663
0.030516567 0.06651234 0.05819297 0.025514456 0.07648361 -0.04318036 0.048717078 0.0064617414
-0.048833128 -0.039972708 0.011619469 -0.027498096 0.058614943 -0.006782994 0.03960742 -0.001003505
0.03766851 -0.026729453 -0.013729435 -0.042122997 0.01662185 0.012236323 0.06447831 -0.010195841
-0.007073089 0.057958025 0.009609246 -0.03413758 0.053596143 0.040255394 0.038205683 0.0025738052
-0.039512105 -0.02619629 0.024096778 0.04847831 0.00320116 -0.064550556 -0.019178426 -0.0002829194
0.035181623 -0.04014458 -0.011015288 0.048067547 0.06152616 -0.028438145 0.040703166 0.04194044
-0.064182974 0.03897082 -0.022107894 0.053165723 0.03318189 0.015572385 0.030494621 -0.0006500495
-0.0049724164 -0.03893208 -0.0032670656 0.0708295 0.0054699187 -0.058697 -0.030316433 -0.003313624
0.051703747 -0.014528033 -0.044516694 0.029576708 0.01963734 0.022951398 0.016003612 -0.040129617
-0.051355284 0.03858414 0.014715034 -0.032993123 0.04876013 0.0153139 0.014576112 -0.036075115
0.058285333 0.01522463 -0.07263733 0.0010072099 0.00492986 -0.021487404 -0.04620526 0.026171613
0.019362144 -0.08083966 -0.04893851 0.037812173 -0.040479008 0.051965088 -0.03291819 -0.003077639
0.06849217 0.023268124 0.01328073 -0.015581554 0.047779333 -0.06487823 -0.0520195 -0.02555954
-0.043512985 -0.029885847 0.05535228 -0.052719645 -0.047678806 -0.061488334 -0.06668016 0.007381098
0.03705675 0.017895034 -0.05310347 0.043254025 0.018517742 -0.073106326 0.030780716 0.018303722
-0.07179127 -0.044782978 -0.036546566 -0.017974542 0.05430255 -0.0083246995 0.02487609 0.02491347
-0.08113446 -0.029776495 -0.030691618 0.040583 0.017457744 -0.012589184 -0.064093955 0.021214256
-0.002349073 -0.0070478595 -0.0622844 -0.019305851 -0.04876424 -0.0070983004 0.056051746 -0.057461947
0.007986392 0.02982741 0.011205053 0.03965262 -0.066370755 0.023523767 0.04400882 0.054003794
-0.034937005 0.04572665 0.047295257 0.05608973 0.06086324 0.065033264 -0.015804231 0.0655424

bias f4 [32]
00000000: 6ab8 fb3b eaef b03c 4edf 1d3d 1765 03bd
00000010: e85b c73c 66e0 e9bb db54 8cbc 5e22 48bc
00000020: afa2 dbbb 9e37 3cbd 8ec9 e33c f5f3 743c
00000030: 5e87 6dbd b4bd 153d 6b46 933b d73b 8fbc
00000040: c18c 0c3d d7c5 923d d0d3 2f3d fb52 fb3c
00000050: 36a1 53bd b083 e2bc 5bec 80bd b59f 01bd
00000060: cae6 fdbc db4a 1a3b c1c9 ad3b 1dce 303c
00000070: 12d4 77bc 2e7d 9a3c 3c80 28bd 76a3 543d
0.007681896 0.021598775 0.038543038 -0.03207883 0.024335817 -0.007137346 -0.017130306 -0.012215225
-0.006702743 -0.04595148 0.02780607 0.014950742 -0.057990424 0.036557868 0.0044944785 -0.017484589
0.03431392 0.07166641 0.04292661 0.030679217 -0.051667415 -0.027650684 -0.06295081 -0.03164645
-0.030993838 0.0023543152 0.005303592 0.010791329 -0.015126245 0.018858518 -0.04113792 0.0519137

weight f4 [2, 32, 3, 3]
00000000: eafd aebc 0225 2b3d 70c8 e23c 5e3f b83c
00000010: f996 d6bc f994 50bc eaac 4d3d 37bd 58bd
00000020: 629c 80bc f9a7 7f3a b92f 6d3d f445 5dbd
00000030: 8618 863d 0c86 11bc 4e75 43bd e19e 09bb
00000040: dad1 2e3d 26b5 74bd d088 043d d983 37bc
00000050: 75ae 14bc c8f2 a53b 2c09 19bd 442c 8f3d
00000060: 6a4e bfbc 6ad8 1fbd 4845 a7bc 3854 19bd
00000070: 1111 463c 6b90 29bd 3e7e 2ebd 64bc 333d
00000080: c341 14bc c3bc 05bd f37f 163d 621e 47bd
00000090: 813c 3d3d d258 babb 00c8 f83c 7457 403d
000000a0: 7457 37bd 6f04 5a3c f159 643c d423 663d
000000b0: a935 2fbd 8ba4 86bd b495 efbc 12ce b53b
000000c0: 2efe 243d aff7 a4bc 5293 0f3d 9e84 8b3c
000000d0: f5cb 19bc e36c 193d f713 cabc bc95 663c
000000e0: 1406 82bd cbc4 053d 0bed 3cbb f123 8f3c
000000f0: aaf7 0abc 72cd 9cbb b8b1 f43c f6bc 313d
00000100: af71 a63c 8b00 a0bc 991a 243c 73e8 833b
00000110: fb5c 723d 54e4 f5bc 4e3a d73c 0ed3 e6bc
00000120: 1f25 0fbc 86d3 febc 707f d2bc 4c50 433d
00000130: 0f58 5fbd 935a 0a3d d3fa 2d3b 4b77 f93c
00000140: 1a00 03bd 0407 f0bb 5846 743c 143a 47bd
00000150: 5382 9b3c 004e 3fbd c665 0bba 78dc b8bc
00000160: e8f7 183d 7248 5abd 1b68 8c3c 3128 34bd
00000170: 8534 083d fcc5 683c d420 8abc 66ce 4ebd
00000180: 5b78 573c d6fb 663d 59f5 28bc 4f0f 383a
00000190: fb30 e03c f70d 0d3d 7a3a 783d 3909 293d
000001a0: 4a4e 283c a81e 263d 2ba3 01bd b7bf 7dbc
000001b0: 3bef 303d f3ea e63c 27ee 9fbc a739 70bd
000001c0: 6b82 783d ea5a 4dbd a325 403c 46f7 043d
000001d0: c0c2 973b 4386 49bd 13ba fa3c 4920 ef3b
000001e0: 3bd6 7cbc e47a c9bc e174 313c 7a00 563a
000001f0: cf8c 8dbc 9cd7 3bbd cb38 52bd 8e02 a23c
00000200: dc7d 6c3c 3738 0bbb 1ef4 28bc 13c6 c6bc
00000210: fc4b 633d 8ce2 443d 9428 28bd 7043 453c
00000220: ed13 4bbd 70a8 f83c 51dc 5b3d 73ce 07bd
00000230: 0a56 3dbd 8f07 0dbd f619 e83c 185c 26bd
00000240: 8501 a23c ff1a 17bd 24ad 33bd 3f42 133b
00000250: 2dba 2a3d 7562 333d 6306 63bc 6c8b 07bd
00000260: 86ee 993c b266 9d3a 7e0c 06bd 6c2d 54bd
00000270: 5742 a6ba b160 25bd 0e20 613d 3ada 6e3d
00000280: 71f2 6c3d aa07 713d 2d02 273d 3780 d63c
00000290: be29 03bd 0c00 59bd 8600 5e3d 9587 0abd
000002a0: 65ed 753d 966d 62bc a66b 073d e1b2 b83c
000002b0: 987d babc a63d 903d c96a 6fbd d2f0 73bc
000002c0: 08a4 c2bc acc8 b43b d190 91bc 417d 18bd
000002d0: 3083 163d e902 24bd 3725 3b3c e0cb 0f3d
000002e0: d0dc 03bd 7ef1 233c 2172 ad3c ee3f 76bc
000002f0: b53f 81bd 6f73 4f3d 4c38 813c 5cb9 713c
00000300: d8f7 a9bc c7ff 123d c034 91bc 00f1 0f3d
00000310: 6214 1abd 5b37 b2bc 9392 ca3b 0d4a ddbc
00000320: 11db f1bc 1e4e 193d d071 0b3c 3aaf c73c
00000330: a112 86bd 11ad 65bc 453a 123d c913 5cbd
00000340: b950 79bc c7e7 0bbd 04ac 0ebd aebc b7bc
00000350: 4e5b d63c 45ad 703d f7eb 3f3d 9b71 303a
00000360: 065f 7ebc 1ff2 3a3d 06a8 343d 6140 373d
00000370: b3ed ce3c bd20 603d e0a0 8e3c dbfd 2dbd
00000380: 840d 0e3d 57e3 09bd 58f5 59bd dc55 4f3d
00000390: 1511 5d3c 64cb e13c 6b40 cf3a ed4b 7dbd
000003a0: 1be0 083c ab86 b1bc f74a 80bc 3742 873d
000003b0: a44d 283c 6cf2 eebc 8d3e d03c ed6b bbbc
000003c0: 14ed 743b 5137 70bd d86e ad3c 6f07 413d
000003d0: 136e bbba 0131 203c 4737 5f3d 2983 503d
000003e0: da64 413d 5a04 68bd 92f1 78bc 92ad 903b
000003f0: dad0 4c3d c9ea 3dbd 8f8b a0b9 ba18 033d
-0.02136131 0.04178334 0.027683467 0.022491153 -0.026195036 -0.01273083 0.05021373 -0.052914824
-0.01569957 0.0009752508 0.05790684 -0.05402179 0.06547646 -0.008882057 -0.047719292 -0.002099924
0.0426806 -0.05974307 0.032357037 -0.0112008685 -0.009074797 0.005064342 -0.037362263 0.06990865
-0.02335282 -0.039024748 -0.020418778 -0.037433833 0.01208903 -0.041397493 -0.042600863 0.043880835
-0.009048882 -0.03265072 0.036743116 -0.04861296 0.04620028 -0.0056868577 0.030368805 0.0469584
-0.044761136 0.013306721 0.013937459 0.056186512 -0.042775784 -0.06574353 -0.029246189 0.005548247
0.040281467 -0.020137636 0.035052605 0.01703101 -0.009387006 0.037457358 -0.024667723 0.014073785
-0.063488156 0.03265838 -0.0028827812 0.017473193 -0.008481899 -0.004785233 0.0298699 0.043393098
0.02031788 -0.019531509 0.010016107 0.004025513 0.059170704 -0.030016102 0.026272919 -0.02817681
-0.008736878 -0.031106722 -0.025695533 0.047684 -0.05452734 0.033777785 0.0026547208 0.030452391
-0.03198252 -0.007325055 0.014909349 -0.048639372 0.018983042 -0.046705246 -0.00053175946 -0.022566065
0.037345797 -0.053291745 0.017139485 -0.043983642 0.03325321 0.014207359 -0.016861357 -0.050489806
0.013151254 0.056392513 -0.010312402 0.0007021324 0.027367106 0.034437146 0.060602643 0.04126856
0.010272572 0.04055658 -0.03164975 -0.015487603 0.043196898 0.028188204 -0.01952274 -0.05864873
0.06067125 -0.05013553 0.011727723 0.03246238 0.0046313703 -0.049200308 0.030606305 0.00729755
-0.015431936 -0.024594732 0.010831089 0.0008163523 -0.017279057 -0.045859918 -0.051323693 0.019776609
0.014434304 -0.0021243223 -0.010312108 -0.024264371 0.055492386 0.048067614 -0.041054323 0.012040004
-0.04957955 0.030353755 0.053676907 -0.03315587 -0.04622463 -0.034431037 0.028332692 -0.04061517
0.019776115 -0.03689098 -0.04386629 0.0022469906 0.041681457 0.043795068 -0.013856503 -0.033091947
0.018790495 0.0012008755 -0.032726757 -0.05180113 -0.0012684566 -0.040375415 0.05496221 0.058313586
0.057848398 0.0588452 0.04077356 0.026184184 -0.03202223 -0.05297856 0.054199718 -0.033820707
0.06004085 -0.013820073 0.033061646 0.022546234 -0.022764966 0.070430085 -0.058451448 -0.014888959
-0.023759857 0.005517086 -0.01776925 -0.037228826 0.036746204 -0.040041838 0.011422447 0.03510654
-0.032193005 0.010006307 0.021172585 -0.01502989 -0.06310979 0.050647195 0.015773915 0.014753666
-0.020748064 0.03588846 -0.017725348 0.035141945 -0.037617095 -0.021754911 0.006182024 -0.02701285
-0.029523404 0.037428014 0.008511022 0.024375547 -0.06546522 -0.014018313 0.0357001 -0.053729806
-0.015217 -0.034156587 -0.034832016 -0.022428837 0.026166584 0.058758993 0.046855893 0.0006730796
-0.015525585 0.04564106 0.044105552 0.04473913 0.025259828 0.05471872 0.017410696 -0.042478424
0.03468086 -0.033664074 -0.053212494 0.05061899 0.013492842 0.027562805 0.0015812045 -0.061839987
0.008354212 -0.02167066 -0.015660746 0.06604426 0.010272417 -0.02916833 0.025420452 -0.022878611
0.0037372755 -0.058646504 0.021171018 0.04712623 -0.0014299772 0.009777308 0.054496076 0.050906334
0.04721532 -0.056644775 -0.015194314 0.0044152224 0.050003864 -0.046366487 -0.00030621557 0.032006003

bias f4 [2]
00000000: b18f 5b3c eecc a2bc
0.013400958 -0.019873109
